…
'encoder_context_scale': 1.0, 'loss_weight_scale': 1.0}, 'eval': {'batch_size': 256, 'perplexity': True, 'perplexity_batch_size': 32}, 'optim': {'weight_decay': 0, 'optimizer': 'AdamW', 'lr': 0.001, 'beta1': 0.9, 'beta2': 0.999, 'eps': 1e-08, 'warmup': 2500, 'grad_clip': 1.0}, 'model': {'name': 'small', 'type': 'ddit', 'hidden_size': 256, 'cond_dim': 256, 'length': 10, 'n_blocks': 1, 'n_heads': 2, 'scale_by_sigma': False, 'dropout': 0.1, 'score_flag': True, 'score_method': 'oricos'}}
True
11922
Number of parameters in the model: 3711232
SEDD4REC(
  (vocab_embed): EmbeddingLayer(
    (embedding): Embedding(11923, 256, padding_idx=11922)
  )
  (sigma_map): TimestepEmbedder(
    (mlp): Sequential(
      (0): Linear(in_features=256, out_features=256, bias=True)
      (1): GELU(approximate='none')
      (2): Linear(in_features=256, out_features=256, bias=True)
    )
  )
  (nonpreference_user): Embedding(1, 256)
  (history_blocks): ModuleList(
    (0): DDiTBlock_UCUR(
      (position_embedding): RotaryEmbedding()
      (emb_dropout): Dropout(p=0.1, inplace=False)
      (norm1): LayerNorm()
      (attn): MultiHeadAttention(
        (linear_q): Linear(in_features=256, out_features=256, bias=True)
        (linear_k): Linear(in_features=256, out_features=256, bias=True)
        (linear_v): Linear(in_features=256, out_features=256, bias=True)
        (dropout): Dropout(p=0.1, inplace=False)
        (softmax): Softmax(dim=-1)
      )
      (norm2): LayerNorm()
      (mlp): PositionwiseFeedForward(
        (w_1): Conv1d(256, 256, kernel_size=(1,), stride=(1,))
        (w_2): Conv1d(256, 256, kernel_size=(1,), stride=(1,))
        (layer_norm): LayerNorm((256,), eps=1e-05, elementwise_affine=True)
        (dropout): Dropout(p=0.1, inplace=False)
      )
      (norm3): LayerNorm()
    )
  )
  (output_layer): DDitFinalLayer4Rec(
    (linear): Linear(in_features=768, out_features=256, bias=True)
  )
)
EMA: <model.ema.ExponentialMovingAverage object at 0x7f8c65f23010>
Optimizer: AdamW (
Parameter Group 0
    amsgrad: False
    betas: (0.9, 0.999)
    capturable: False
    eps: 1e-08
    foreach: None
    lr: 0.001
    maximize: False
    weight_decay: 0
)
Scaler: <torch.cuda.amp.grad_scaler.GradScaler object at 0x7f8c65f23040>
Length of datasets: 61, 8, 8
…
